results_HAR/HAR_model_checkpoint.pt (torch, 396597 bytes, 14 tensors)

conv1.0.weight f4 [196, 9, 6]
0	0xbc46afb5	-0.012126853
1	0x3d733ceb	0.059384268
2	0xbe030e3c	-0.12798399
3	0xbdebaf46	-0.1150804
4	0xbd791a28	-0.06081596
5	0x3d115347	0.03547981
6	0xbc1682b2	-0.009186434
7	0x3dc55bf9	0.09636683
8	0xbcca9524	-0.024729319
9	0x3ce65292	0.028115544
10	0xbd34344e	-0.043995194
11	0xbcdb6402	-0.026781086
12	0xbe0ea4b4	-0.13930017
13	0xbdc75a0c	-0.09733972
14	0xbd6f99f3	-0.058496427
15	0x3baeb3e7	0.0053315046
16	0x3d4e4a90	0.050364077
17	0x3d9447cd	0.072402574
18	0xbdc21cdb	-0.0947816
19	0xbd74b0cd	-0.059738923
20	0x3d54a985	0.05191948
21	0x3df1fe9a	0.118161395
22	0xbcc43d6c	-0.02395507
23	0x3dd38309	0.10327727
24	0xbc872176	-0.016495448
25	0x3ca10802	0.019657139
26	0x3dff84e6	0.1247652
27	0xbe06c255	-0.1316007
28	0xbdc7b1a0	-0.09750676
29	0xbd448109	-0.04797462
30	0xbd2e6aab	-0.042582195
31	0x3e003e3a	0.12523738
32	0xbdada057	-0.08477848
33	0xbd85a204	-0.06525043
34	0xbdcdb85e	-0.10044931
35	0xbe07be13	-0.13256101
36	0xbda6f27d	-0.0815172
37	0x3deab79f	0.11460804
38	0x3d6dd087	0.058060195
39	0x3d823e13	0.06359496
40	0x3bc6824e	0.006058014
41	0xbd8e0a78	-0.069355905
42	0x3c6fd4cf	0.01463814
43	0xbe0bdc4a	-0.13658252
44	0xbddd178f	-0.10795509
45	0xbda0b3d3	-0.07846799
46	0x3da17fb8	0.078856885
47	0x3d96ddb7	0.073665075
48	0xbd81c417	-0.06336229
49	0xbbf64e8f	-0.007516689
50	0x3daf4299	0.08557624
51	0x3e09b3cf	0.13447498
52	0x3d568a43	0.05237795
53	0x3c78bd00	0.01518178
54	0x3dddf99f	0.10838627
55	0xbd80c469	-0.06287462
56	0x3d152553	0.03641255
57	0xbdca37a5	-0.098738946
58	0xbdb175c4	-0.0866504
59	0xbd83cb82	-0.064353004
60	0x3d633f1e	0.055480115
61	0x3d3304da	0.0437058
62	0xbdc40ddd	-0.09572957
63	0x3cdcd619	0.026957558
64	0x3d8238e9	0.06358511
65	0xbccbe0b8	-0.024887428
66	0xbcab4b8e	-0.02091005
67	0x3b407e45	0.0029372138
68	0x3d66be44	0.056333795
69	0x3dd157e4	0.10221842
70	0xbe0b3a18	-0.1359638
71	0xbdaa7853	-0.08323731
72	0x3d648e74	0.055799916
73	0x3df29213	0.11844268
74	0x3dfce9b5	0.123492636
75	0x3df3b2c0	0.11899328
76	0x3c90ddd3	0.017683899
77	0xbe08f8e1	-0.1337619
78	0x3c77896d	0.015108448
79	0xbda1bbcf	-0.0789715
80	0xbdfb19b8	-0.12260765
81	0x3df32d4e	0.118738756
82	0x3dd3bb1b	0.10338422
83	0xbe049a1a	-0.1294941
84	0x3cd37a53	0.025815165
85	0xbc9d99a0	-0.019238293
86	0xbc9ad37b	-0.01889967
87	0xbd8694f7	-0.065713815
88	0x3d2069c1	0.039163355
89	0xbdcfdad7	-0.10149162
90	0x3d52a147	0.051423337
91	0x3d90d336	0.07071535
92	0x3dc9de7f	0.09856891
93	0x3d530303	0.051516544
94	0xbe08e7e1	-0.13369705
95	0xbdb3a7e1	-0.08772255
96	0x3d9530e0	0.07284713
97	0x3d00986c	0.03139536
98	0xbdd6038a	-0.10449894
99	0xbd9b7a54	-0.075916916
100	0x3e072d82	0.13200954
101	0x3dc7538a	0.09732731
102	0xbd853e49	-0.065060206
103	0xbd294cc5	-0.04133298
104	0xbe0bcca2	-0.1365228
105	0xbc27e560	-0.010247558
106	0xbde48043	-0.111572765
107	0xbdea9ab5	-0.11455289
108	0xbc734a0a	-0.014849195
109	0x3c74c3f5	0.014939298
110	0xbd67a7e2	-0.05655659
111	0x3dad4e08	0.08462149
112	0xbd9e5988	-0.077319205
113	0x3e03f76e	0.12887356
114	0x3dde8cf9	0.10866732
115	0xbdcf294f	-0.10115301
116	0xbcd02c53	-0.02541176
117	0x3c251682	0.010076167
118	0x3cb9f9e2	0.022702161
119	0x3d15a61a	0.03653536
120	0x3d510b6f	0.051036295
121	0x3a8ae47c	0.0010596658
122	0xbd9c4fa5	-0.076323785
123	0x3d4ebf3d	0.050475348
124	0xbe134d98	-0.14385068
125	0xbdb8a2b0	-0.09015405
126	0xbd25eae0	-0.040507197
127	0xbd9440a8	-0.07238895
128	0xbd5217ae	-0.051292114
129	0xbde95acc	-0.11394271
130	0xbd0b1dfd	-0.033964146
131	0x3ca3207e	0.019912954
132	0xbdc30a47	-0.095234446
133	0xbc7e86d1	-0.015535072
134	0x3db7011f	0.08935761
135	0xbc9cb4a8	-0.019129112
136	0x3b587148	0.0033026505
137	0xbbf40920	-0.007447377
138	0x3d227bee	0.03966897
139	0x3dc687e8	0.09693891
140	0x3e0e92d2	0.13923195
141	0x3dc46eb7	0.0959143
142	0x3e0ba316	0.13636431
143	0xbb968a2a	-0.004594107
144	0xbe016299	-0.12635268
145	0xbd8bb8f3	-0.06822386
146	0x3db8a779	0.09016318
147	0xbb165fdb	-0.0022945318
148	0xbd8c62b1	-0.068547614
149	0xbdd6c4f7	-0.10486787
150	0xbdf8301b	-0.121185504
151	0xbddff60a	-0.109356
152	0xbcc4e002	-0.024032596
153	0x3d9ce195	0.07660214
154	0x3d9a299a	0.07527466
155	0xbe03fb9e	-0.12888953
156	0x3db67159	0.08908338
157	0xbdd44237	-0.10364192
158	0xbcdc3894	-0.026882447
159	0xbd5f02f3	-0.054446172
160	0xbccdce3c	-0.025122754
161	0xbcc743fe	-0.024324413
162	0xbe1ca4b8	-0.1529721
163	0xbe1c54ea	-0.15266767
164	0xbd773659	-0.060354564
165	0xbd1a14eb	-0.037617605
166	0xbdcf1e79	-0.10113234
167	0x3c4e287f	0.012582897
168	0xbde88522	-0.11353518
169	0x3c382d23	0.01124123
170	0x3e16af1a	0.14715233
171	0xbce56206	-0.028000843
172	0x3e164d95	0.14678033
173	0x3d93f8db	0.072252
174	0xbe072518	-0.13197744
175	0x3d9c7710	0.07639897
176	0xbca0bd3d	-0.019621486
177	0xbd707e50	-0.05871421
178	0x3de672bf	0.11252355
179	0xbdd406ec	-0.10352883
180	0x3cdf1ac0	0.027234435
181	0xbc82ca93	-0.015965736
182	0x3ddb431f	0.10706162
183	0x3d35a80a	0.044349708
184	0x3d8ef632	0.06980552
185	0x3d591417	0.052997675
186	0xbc0a251a	-0.008431697
187	0xbbc11af0	-0.005893104
188	0xbdc28a02	-0.09498979
189	0x3da92cd5	0.08260504
190	0x3de18fcd	0.11013756
191	0x3dc0a3a9	0.09406216
192	0xbdd8f976	-0.10594456
193	0xbba810e4	-0.0051289666
194	0xbddbe037	-0.10736125
195	0xbdb0108a	-0.085969046
196	0xbdb887f0	-0.09010303
197	0x3d158b8a	0.036510028
198	0xbd986138	-0.07440418
199	0x3b1473bc	0.002265199
200	0x3c1bba56	0.009504875
201	0x3dba3feb	0.09094223
202	0xbdcabe6d	-0.09899602
203	0xbdb55864	-0.0885475
204	0xbdafe3ab	-0.08588346
205	0x3dba353a	0.090921834
206	0xbd528226	-0.05139365
207	0x3de6f30f	0.112768285
208	0x3d3f5fba	0.04672215
209	0x3c7160cc	0.014732551
210	0xbbb40316	-0.005493532
211	0xbd0003d2	-0.031253643
212	0x3c67ab06	0.014139896
213	0xbd05e4f0	-0.032689035
214	0xbb14e2ec	-0.0022718264
215	0x3c87117d	0.016487831
216	0xbde2d297	-0.11075323
217	0xbdafed2c	-0.08590159
218	0x3dbd47f2	0.09242238
219	0xbe0090e6	-0.12555274
220	0xbcb4eae5	-0.022084663
221	0x3dffbe87	0.12487512
222	0x3cde1b4c	0.027112626
223	0xbc9e184d	-0.019298697
224	0xbe0ae13b	-0.13562481
225	0x3d66ef0f	0.056380328
226	0xbddb7d9b	-0.10717317
227	0xbd4e89fe	-0.05042457
228	0xbd6926bd	-0.05692171
229	0xbd198221	-0.037477616
230	0xbc824af2	-0.015904877
231	0x3dc83148	0.09775025
232	0x3bf1080a	0.0073556947
233	0x3df3d014	0.11904922
234	0x3da5df3c	0.08099219
235	0xbdbcbd0a	-0.09215744
236	0x3d4c9c68	0.049953848
237	0xbde0330d	-0.10947237
238	0xbd8ef4f8	-0.06980318
239	0x3d03df4f	0.032195386
240	0x3d457b77	0.04821345
241	0x3dd33160	0.10312152
242	0xbd35ac86	-0.044353984
243	0xbb97c8b9	-0.0046320823
244	0x3d8587e0	0.06520057
245	0xbe0655ee	-0.13118717
246	0x3df62ec7	0.12020641
247	0xbdbe1949	-0.092821665
248	0x3c744528	0.014909066
249	0xbc8cd3e6	-0.017190885
250	0xbd8eee79	-0.06979079
251	0x3c9bd100	0.019020557
252	0x3ded20cc	0.11578521
253	0xbd1cf282	-0.03831721
254	0xbda4c6ca	-0.080457285
255	0xbd4c75be	-0.049916975

conv1.0.bias f4 [196]
0	0x3d0df96b	0.03466169
1	0x3d07305f	0.033005115
2	0xbdf314a9	-0.11869175
3	0x3dc371a8	0.095431626
4	0x3d2ad547	0.041707303
5	0x3d50a7aa	0.050941147
6	0xbe0c1c59	-0.13682689
7	0xbe03eb07	-0.12882625
8	0xbdeac393	-0.11463084
9	0xbd5e289b	-0.054237943
10	0xbdea68e4	-0.114457875
11	0x3d71841e	0.058963887
12	0xbc9d32b8	-0.019189224
13	0xbd4a6c96	-0.049419962
14	0x3dfaf3ad	0.12253509
15	0x3c74f745	0.014951532
16	0x3c26aae4	0.010172579
17	0xbda591d3	-0.080844544
18	0xbd17a6db	-0.03702436
19	0xbdddaf56	-0.10824458
20	0xbda5c996	-0.0809509
21	0x3e0dd7fd	0.13851924
22	0xbdb1aa13	-0.08675017
23	0x3d9ac753	0.07557549
24	0x3dc55724	0.096357614
25	0x3dbc5244	0.091953784
26	0x3df04c2c	0.11733279
27	0x3df4e859	0.11958379
28	0x3d9a2b75	0.0752782
29	0xbbd11750	-0.006380953
30	0xbce7994a	-0.028271336
31	0xbe070bc4	-0.13188082
32	0x3d84aac4	0.064778835
33	0xbce82101	-0.02833605
34	0x3ca28f8e	0.019843843
35	0xbc9c470b	-0.019076845
36	0x3db2a27c	0.08722398
37	0x3bbbc10f	0.0057298015
38	0x3ddb1baa	0.10698636
39	0x3dd1ef5f	0.102507345
40	0x3d4fe6d1	0.050757233
41	0xbc83bd60	-0.016081512
42	0x3d81767c	0.06321427
43	0xbda63439	-0.081154294
44	0x3dc3fec3	0.09570076
45	0x3dc6ca62	0.0970657
46	0x3cc6132d	0.024179066
47	0xbc45b5a2	-0.01206723
48	0x3d0cf6a7	0.034414914
49	0x3e0456f1	0.1292379
50	0x3d124e4c	0.0357192
51	0xbd8f14d0	-0.069863915
52	0xbcadfbe4	-0.021238275
53	0xbe0bc152	-0.13647965
54	0xbb199775	-0.0023436223
55	0xbe018cd3	-0.12651376
56	0x3d023a53	0.031793904
57	0x3c76e562	0.015069338
58	0x3e041a18	0.12900579
59	0xbd23f258	-0.04002604
60	0x3a754e71	0.0009357697
61	0x3a4f7b27	0.00079147745
62	0xbd4d5c55	-0.050136883
63	0xbd3b16c0	-0.045675993
64	0xbd4f1bbe	-0.050563566
65	0xbd6a8f33	-0.05726547
66	0x3c024e6f	0.00795327
67	0x3d3b6505	0.045750637
68	0x3ca39919	0.019970464
69	0x3dd135f9	0.102153726
70	0xbc71b9f5	-0.014753808
71	0x3d1a75d4	0.037710026
72	0xbdf2e549	-0.11860139
73	0x3db8712f	0.09005963
74	0x3dd70d74	0.10500613
75	0x3d57e32c	0.052706882
76	0xbdacfa35	-0.08446161
77	0xbb32a3f5	-0.002725837
78	0xbde3745f	-0.111061804
79	0xbdf49647	-0.11942726
80	0x3de5d160	0.11221576
81	0x3d80955f	0.0627849
82	0x3dd8051b	0.10547849
83	0x3db12f3c	0.08651587
84	0xbcd3d020	-0.025856078
85	0x3d787b1f	0.060664292
86	0xbd85d672	-0.06535043
87	0xbde67885	-0.11253456
88	0xbcb06979	-0.021534668
89	0xbd9fb6a4	-0.07798508
90	0x3dfae7fb	0.12251278
91	0xbde66996	-0.11250608
92	0x3dfff40a	0.12497719
93	0xbd0ab184	-0.0338607
94	0x3cc6d317	0.024270577
95	0x3deecf1d	0.116605975
96	0xbd8b39c8	-0.0679813
97	0xbd69aba2	-0.057048447
98	0x3d77cd8f	0.06049877
99	0xbd1c346d	-0.038135935
100	0x3c9b0392	0.0189226
101	0x3dc00722	0.093763605
102	0x3b13368c	0.0022462932
103	0x3db4bcfb	0.08825108
104	0xbd7c742d	-0.06163423
105	0x3d727f76	0.059203587
106	0x3c66c094	0.014084
107	0xbddcf42f	-0.10788762
108	0xbc6c19e3	-0.014410469
109	0x3d6505ed	0.055913854
110	0xbda545ab	-0.08069929
111	0x3de79d08	0.11309248
112	0xbd9b5130	-0.07583845
113	0x3d87a11d	0.06622527
114	0x3c99a77e	0.018756624
115	0xbda25153	-0.079256676
116	0x3dcad346	0.099035785
117	0xbd0244e3	-0.031803977
118	0xbcd3019d	-0.025757605
119	0xbd15e79a	-0.036597826
120	0xbe098c16	-0.13432345
121	0x3d99f13f	0.07516717
122	0xbd8178e4	-0.06321886
123	0x3daa4c56	0.08315341
124	0x3d6e790d	0.05822091
125	0x3da395db	0.07987567
126	0x3d5fedbc	0.05467008
127	0x3d1dddb7	0.038541522
128	0xbde4f475	-0.11179439
129	0xbc50ef8a	-0.012752423
130	0xbd7e3ff2	-0.0620727
131	0x3dcc481d	0.09974692
132	0x3d6311d4	0.055436924
133	0x3bc49ed6	0.00600038
134	0xbdec3ab0	-0.11534631
135	0xbe018142	-0.12646964
136	0xbddb571f	-0.107099764
137	0x3dcc6195	0.0997955
138	0x3d9becfd	0.07613561
139	0xbded435f	-0.11585116
140	0xbdecb88f	-0.11558639
141	0x3dec5306	0.11539273
142	0x3d525b51	0.051356617
143	0xbdb2234c	-0.086981386
144	0xbc7aa0f2	-0.015297161
145	0x3dad1689	0.08451564
146	0x3d8bed2e	0.06832348
147	0x3bb5b8dd	0.005545719
148	0xbd6612fa	-0.05617044
149	0xbd2b7700	-0.041861534
150	0xbce892a4	-0.028390236
151	0xbda71de2	-0.081599966
152	0xbdb99ebc	-0.09063479
153	0x3dc40081	0.095704086
154	0x3c9c98e0	0.019115865
155	0x3d2d09b9	0.0422456
156	0xbdc61117	-0.096712284
157	0x3ce7641d	0.02824598
158	0x3dfac6f9	0.12244982
159	0x3da8f413	0.082496785
160	0x3b85777d	0.004073082
161	0xbd85c285	-0.06531242
162	0x3e0d8e81	0.13823892
163	0xbd78073f	-0.060553785
164	0xbd2b34ec	-0.041798517
165	0x3bb69369	0.005571772
166	0xbd14379e	-0.036185853
167	0xbba169bb	-0.004925934
168	0xbd1ba321	-0.03799737
169	0xbda0ee42	-0.07857944
170	0xba271801	-0.00063741213
171	0x3d682c32	0.056682773
172	0xbe0a2e9a	-0.1349434
173	0x3d59932e	0.053118877
174	0x3c8530b5	0.016258577
175	0xbdaba150	-0.08380377
176	0x3dd42560	0.10358691
177	0x3dc39ef0	0.09551799
178	0x3d34377a	0.04399822
179	0xbd54418b	-0.05182032
180	0x3d01b692	0.031668253
181	0x3d7141d4	0.05890067
182	0xbc974575	-0.018465737
183	0xbd784f1e	-0.060622327
184	0x3af76a68	0.0018876316
185	0xbdebdc53	-0.11516633
186	0x3dd4c5c7	0.103892855
187	0x3c897b9b	0.016782572
188	0xbd8165f1	-0.06318272
189	0x3c813ceb	0.015776118
190	0xbd950fc4	-0.07278398
191	0xbc6797f7	-0.014135352
192	0xbda37ed9	-0.07983179
193	0x3ce80ec7	0.028327359
194	0x3d8aecac	0.06783423
195	0xbd285db8	-0.041105002

conv1.1.weight f4 [196]
0	0x3f81c596	1.0138423
1	0x3f80ce0d	1.0062882
2	0x3f80746e	1.0035532
3	0x3f82d8a4	1.0222363
4	0x3f80bef0	1.005827
5	0x3f828adb	1.0198625
6	0x3f80ec45	1.0072104
7	0x3f808802	1.0041506
8	0x3f7ff3e4	0.9998152
9	0x3f808266	1.0039794
10	0x3f815d82	1.0106661
11	0x3f81eecb	1.0150999
12	0x3f820180	1.0156708
13	0x3f821045	1.0161215
14	0x3f81ad0a	1.0130932
15	0x3f801890	1.0007496
16	0x3f805f59	1.0029098
17	0x3f815235	1.0103213
18	0x3f825071	1.0180799
19	0x3f821909	1.016389
20	0x3f807630	1.0036068
21	0x3f8208ef	1.0158976
22	0x3f80b73e	1.0055921
23	0x3f80af3f	1.0053481
24	0x3f814334	1.0098634
25	0x3f807c5a	1.0037949
26	0x3f82ca2b	1.0217947
27	0x3f80f512	1.007479
28	0x3f805b68	1.0027895
29	0x3f802cca	1.0013669
30	0x3f827124	1.0190778
31	0x3f80681c	1.0031772
32	0x3f81352a	1.0094349
33	0x3f80229b	1.0010561
34	0x3f81ac85	1.0130774
35	0x3f81612b	1.0107778
36	0x3f821884	1.0163732
37	0x3f802e79	1.0014182
38	0x3f8127db	1.0090288
39	0x3f8352f5	1.0259691
40	0x3f803484	1.0016026
41	0x3f81d1a0	1.0142097
42	0x3f80fe6f	1.0077647
43	0x3f80dc2d	1.0067192
44	0x3f819136	1.012244
45	0x3f81a999	1.0129882
46	0x3f8283a0	1.0196419
47	0x3f80abb3	1.0052398
48	0x3f81c362	1.0137751
49	0x3f8054e6	1.0025909
50	0x3f82027e	1.015701
51	0x3f81b229	1.0132495
52	0x3f81f7b6	1.015372
53	0x3f81dc7f	1.0145415
54	0x3f81d395	1.0142695
55	0x3f829e41	1.0204545
56	0x3f827322	1.0191386
57	0x3f80ca95	1.0061823
58	0x3f814075	1.0097796
59	0x3f80e3c0	1.0069504
60	0x3f8254f2	1.0182173
61	0x3f810ac7	1.0081414
62	0x3f80b81b	1.0056185
63	0x3f808e65	1.0043455
64	0x3f81e32c	1.0147452
65	0x3f809504	1.0045476
66	0x3f80a8f2	1.0051558
67	0x3f81cecb	1.0141233
68	0x3f81379f	1.0095099
69	0x3f81af12	1.0131552
70	0x3f835ee5	1.0263335
71	0x3f80a9a5	1.0051771
72	0x3f8165fb	1.0109247
73	0x3f81a3fe	1.0128171
74	0x3f8204f9	1.0157768
75	0x3f81b96a	1.0134709
76	0x3f81e279	1.0147239
77	0x3f81d159	1.0142013
78	0x3f831d92	1.0243399
79	0x3f80e455	1.0069681
80	0x3f8173b2	1.0113432
81	0x3f80131e	1.0005834
82	0x3f8082ef	1.0039958
83	0x3f8166dd	1.0109516
84	0x3f81ec14	1.015017
85	0x3f80e46c	1.0069709
86	0x3f826bc2	1.0189135
87	0x3f814e7d	1.0102078
88	0x3f817ef1	1.0116864
89	0x3f818e9a	1.0121644
90	0x3f805eb0	1.0028896
91	0x3f81b574	1.01335
92	0x3f817f0a	1.0116894
93	0x3f7f5344	0.9973643
94	0x3f808aef	1.0042399
95	0x3f8247e1	1.0178186
96	0x3f81f0c5	1.0151602
97	0x3f80d53e	1.0065076
98	0x3f8139ec	1.0095801
99	0x3f805c04	1.0028081
100	0x3f832460	1.0245476
101	0x3f810e83	1.0082554
102	0x3f80d9de	1.0066488
103	0x3f81ceea	1.014127
104	0x3f810d94	1.0082269
105	0x3f80d5d1	1.0065252
106	0x3f8102c8	1.0078974
107	0x3f800df0	1.0004253
108	0x3f80d598	1.0065184
109	0x3f820d6f	1.016035
110	0x3f818c81	1.0121003
111	0x3f809430	1.0045223
112	0x3f810a7f	1.0081328
113	0x3f804a41	1.002266
114	0x3f805592	1.0026114
115	0x3f80e524	1.0069928
116	0x3f812051	1.0087987
117	0x3f82f1f0	1.0230083
118	0x3f811825	1.0085493
119	0x3f80e624	1.0070233
120	0x3f808fd7	1.0043896
121	0x3f8166e3	1.0109524
122	0x3f832594	1.0245843
123	0x3f80998a	1.0046856
124	0x3f80b89f	1.0056342
125	0x3f80a023	1.004887
126	0x3f80c716	1.0060756
127	0x3f810ba9	1.0081683
128	0x3f81755e	1.0113943
129	0x3f80b9d7	1.0056714
130	0x3f80f9e1	1.0076257
131	0x3f81d889	1.0144206
132	0x3f819d16	1.0126064
133	0x3f815718	1.0104704
134	0x3f8191b1	1.0122586
135	0x3f817a95	1.0115534
136	0x3f840930	1.0315304
137	0x3f81750b	1.0113844
138	0x3f80b02a	1.0053761
139	0x3f81e055	1.0146586
140	0x3f80b9e3	1.0056728
141	0x3f81e579	1.0148154
142	0x3f80eac7	1.0071648
143	0x3f81151f	1.0084571
144	0x3f80789a	1.0036805
145	0x3f81a1cb	1.01275
146	0x3f8185f8	1.0119009
147	0x3f814496	1.0099056
148	0x3f82c33a	1.0215828
149	0x3f8140c7	1.0097893
150	0x3f8191b0	1.0122585
151	0x3f7f2c31	0.99676806
152	0x3f813395	1.0093867
153	0x3f829e7b	1.0204614
154	0x3f824728	1.0177965
155	0x3f82644b	1.0186857
156	0x3f8175b5	1.0114046
157	0x3f827eb3	1.0194916
158	0x3f820ec3	1.0160755
159	0x3f818b23	1.0120586
160	0x3f815c63	1.0106319
161	0x3f812493	1.0089287
162	0x3f808f51	1.0043737
163	0x3f812722	1.0090067
164	0x3f80f742	1.0075457
165	0x3f80b644	1.0055623
166	0x3f817f0c	1.0116897
167	0x3f80f1b8	1.0073767
168	0x3f808754	1.0041299
169	0x3f82343c	1.0172191
170	0x3f818ac7	1.0120476
171	0x3f7f9329	0.99833924
172	0x3f7fdad2	0.9994327
173	0x3f818257	1.0117902
174	0x3f81badd	1.0135151
175	0x3f811a86	1.0086219
176	0x3f816475	1.0108782
177	0x3f811f7d	1.0087734
178	0x3f80d4b2	1.006491
179	0x3f810bab	1.0081686
180	0x3f818d5a	1.0121262
181	0x3f8286ab	1.0197347
182	0x3f813f1b	1.0097383
183	0x3f80fc73	1.0077041
184	0x3f80a7d1	1.0051214
185	0x3f8118c3	1.0085682
186	0x3f81e4a5	1.0147902
187	0x3f81c21f	1.0137366
188	0x3f819afc	1.0125422
189	0x3f80f99c	1.0076175
190	0x3f815ef6	1.0107105
191	0x3f80b8df	1.0056418
192	0x3f81eeaa	1.015096
193	0x3f817c3e	1.0116041
194	0x3f81c307	1.0137643
195	0x3f81e3d1	1.0147649

conv1.1.bias f4 [196]
0	0x39a0e7b5	0.00030690213
1	0xbac00e33	-0.0014652669
2	0xb9bf3a08	-0.00036473596
3	0x3c2e4018	0.010635398
4	0xba23a54e	-0.0006242589
5	0x3c03b0bc	0.008037742
6	0xbc048841	-0.008089126
7	0xbb66087b	-0.003510027
8	0xbbc551ab	-0.0060216985
9	0x3aad0c46	0.001320251
10	0x3c06b205	0.008221154
11	0xbc04e6cb	-0.008111666
12	0x3a33cffb	0.00068592996
13	0xb986fd8b	-0.00025747376
14	0x3b798349	0.0038072637
15	0xbb3aeeae	-0.0028523612
16	0xbc1386c1	-0.009004296
17	0xb9c030f3	-0.00036657564
18	0x3b9d50cc	0.0048008915
19	0x3bc260b6	0.005931939
20	0x3aaadb17	0.0013035265
21	0x3b8ae1d6	0.0042383475
22	0xbb4ea72d	-0.003153275
23	0xbafad0e6	-0.0019135743
24	0x3bef5d74	0.0073048417
25	0x3c1e8bc6	0.009676879
26	0x3bf60046	0.007507357
27	0x3b45a1ff	0.0030156372
28	0x3b26c4dc	0.0025446927
29	0xbaa3c790	-0.0012495387
30	0x3b66a386	0.0035192682
31	0xbb691050	-0.0035562702
32	0xbc04a13b	-0.008095081
33	0x3a9aaee0	0.0011801384
34	0xb85ba3ca	-5.236621e-05
35	0x3c61378d	0.0137461545
36	0x39632afb	0.00021664418
37	0x3bd9237d	0.006626545
38	0x3be4dde3	0.006984459
39	0x3b06f31c	0.0020591682
40	0x3bdf36fc	0.0068119746
41	0xbb88ba8f	-0.00417263
42	0xbae3ef42	-0.001739003
43	0xbb96b7c7	-0.0045995447
44	0xbaabaf3c	-0.0013098489
45	0xbbf9f082	-0.0076275477
46	0x3b754b05	0.0037428748
47	0xbaae4c1f	-0.0013297832
48	0x3bceab01	0.0063070063
49	0x3c188d8f	0.009311094
50	0x3c19db82	0.009390714
51	0x3b2e3ba1	0.0026585835
52	0x3b80d61d	0.0039317743
53	0xbb8cfbc4	-0.0043024737
54	0x3bdfa0fa	0.00682461
55	0xbb071454	-0.0020611482
56	0x3b8687e0	0.004105553
57	0x3ae59cfb	0.0017518097
58	0x3b07f8a9	0.0020747578
59	0xb9cc5659	-0.00038974246
60	0x3b1304f9	0.0022433384
61	0xba76514f	-0.0009396271
62	0x3a237b26	0.0006236307
63	0xbb19f5a0	-0.0023492351
64	0x3c159550	0.009129837
65	0x39bc38dc	0.00035900518
66	0xbba94f73	-0.005166942
67	0xbc0f9122	-0.00876263
68	0xbbd5bc6c	-0.006522706
69	0xbb341b93	-0.0027482256
70	0x3bc58486	0.006027761
71	0xbab24bb4	-0.0013602884
72	0xbc092eab	-0.008372943
73	0x3bdd4ffe	0.0067539206
74	0xbbea7acc	-0.007155752
75	0x39fe41b4	0.00048495608
76	0x3bb95ad9	0.005656582
77	0xb7a63575	-1.9813635e-05
78	0x3992cebb	0.00028001316
79	0x3b0e2230	0.0021687858
80	0x3bbdabe4	0.005788313
81	0x3a834500	0.001001507
82	0x3b3da2d4	0.0028936164
83	0xba87eef7	-0.00103709
84	0x3aa49d5f	0.0012559107
85	0xbadba53e	-0.001675762
86	0xb7fc755d	-3.0095393e-05
87	0xbb99b137	-0.004690315
88	0x393fbb1f	0.00018284887
89	0xba86ddf1	-0.0010289532
90	0xbbb5ac48	-0.005544219
91	0xba7a7542	-0.0009554216
92	0x3b21f120	0.0024710372
93	0xbc1e34f6	-0.009656182
94	0x3ac824c6	0.0015269748
95	0xba2d184e	-0.0006603048
96	0xbb9fb574	-0.004873926
97	0xbb7ad918	-0.003827637
98	0x3ba4beb6	0.0050276173
99	0xbb438185	-0.0029831838
100	0x3b6bd540	0.0035985261
101	0x3bbda5f3	0.005787605
102	0xbaea9665	-0.0017897604
103	0xb9ea0b9e	-0.00044640613
104	0x3a9c1e0e	0.0011910812
105	0x3af6bf9b	0.0018825413
106	0x3b29f03c	0.0025930544
107	0xbba87ea6	-0.005142051
108	0x3bbaec2f	0.005704425
109	0x3bd2c109	0.006431703
110	0x38e926f3	0.00011117561
111	0xb907f647	-0.00012966349
112	0xb997cecf	-0.0002895505
113	0xbc0bd9e0	-0.008535832
114	0x3bf8144f	0.0075707803
115	0xbb19b441	-0.0023453387
116	0xb98b08a2	-0.00026518578
117	0xba320cfb	-0.00067920954
118	0xbb352749	-0.0027641824
119	0x3bb31fc4	0.0054664332
120	0xbb63901d	-0.003472335
121	0xbb756a08	-0.0037447233
122	0x399a4ac1	0.00029428865
123	0x3b06ad07	0.002054991
124	0xbc0b3d9f	-0.008498578
125	0x3b855458	0.0040688924
126	0x3b71f670	0.003692057
127	0xbc0be4a2	-0.008538397
128	0x3b8c70fb	0.0042859293
129	0x3983fab6	0.0002517306
130	0xbb54b08a	-0.0032453858
131	0xbb5dd2d1	-0.003384758
132	0xba796bfb	-0.00095146865
133	0x3b314ed1	0.0027055035
134	0x3b2e5294	0.0026599513
135	0xba01312e	-0.0004928288
136	0x3aca6dc1	0.0015444086
137	0xba7db7f0	-0.0009678593
138	0xbb3594d2	-0.0027707112
139	0x3bbab36d	0.0056976588
140	0x3bcb1669	0.00619774
141	0x36e9a588	6.9632115e-06
142	0xbb09b7c6	-0.0021014079
143	0x3b29599d	0.0025840767
144	0x3a70fa21	0.00091925455
145	0x3b1eaecd	0.0024213076
146	0xba4fd178	-0.00079276366
147	0x3c0d5a22	0.008627446
148	0x3af4adf9	0.001866757
149	0x3add211b	0.0016870828
150	0x3c7b4694	0.015336651
151	0x3b29b122	0.0025892933
152	0x3baad313	0.0052131503
153	0x3b88efa3	0.0041789575
154	0xbb42871e	-0.0029682587
155	0xbbacdc0d	-0.0052752555
156	0x3b8bd76a	0.0042676227
157	0x3bceeb99	0.0063147065
158	0x3b2251e9	0.002476806
159	0x3bbe2f78	0.0058039986
160	0x3c3d185e	0.011541454
161	0xbb46ab1c	-0.0030314391
162	0x3bedaec1	0.0072534983
163	0xba84974c	-0.0010115891
164	0x3a4a56fc	0.000771865
165	0xba2a2741	-0.00064908346
166	0xbb0fe093	-0.0021953925
167	0xbac0bec1	-0.0014705287
168	0xbbb39f78	-0.0054816566
169	0x39960d8a	0.00028620317
170	0xbb5cd924	-0.0033698762
171	0xbb70dab4	-0.003675145
172	0xba273ac4	-0.0006379301
173	0x3abd33f8	0.0014435044
174	0xbb8f00e6	-0.004364121
175	0x3b4da5a1	0.003137924
176	0x3b4e8318	0.0031511243
177	0x3aafc779	0.0013410888
178	0xb94a5f96	-0.0001929983
179	0x3b317392	0.0027076942
180	0xbaad0da1	-0.0013202914
181	0xbb079601	-0.0020688775
182	0xbaa33b16	-0.0012453522
183	0xbbab37c9	-0.005225156
184	0xbb01a308	-0.0019781012
185	0x3b0aef4d	0.0021199763
186	0x3c290a89	0.010317453
187	0x3b1a9b3a	0.0023591057
188	0xbbb255a5	-0.0054423385
189	0xbb2f4757	-0.0026745403
190	0xbb7934a8	-0.003802577
191	0x3babb3ec	0.005239954
192	0x3ba46094	0.005016396
193	0xbbe38875	-0.006943757
194	0x3b8ca193	0.004291722
195	0x3bf566c9	0.0074890596

conv1.1.running_mean f4 [196]
0	0x3df5f2e8	0.12009221
1	0x3d03370d	0.032034922
2	0xbebb9c20	-0.3664255
3	0xbd9cbe96	-0.07653539
4	0xbd4a62bd	-0.04941057
5	0x3d409caa	0.047024406
6	0xbe4267a2	-0.18984845
7	0xbe4e2557	-0.20131432
8	0xbce502f7	-0.027955515
9	0xbe2a7b16	-0.16648516
10	0xbe6c83a3	-0.2309709
11	0x3e67f976	0.22653756
12	0x3dce43d4	0.10071531
13	0xbdef3fb7	-0.116820745
14	0x3d08d2e3	0.033404242
15	0x3e85c249	0.2612479
16	0x3ee5441d	0.4477853
17	0x3d807610	0.06272519
18	0xbda8b5ee	-0.08237825
19	0xbe4a5be4	-0.19761616
20	0xbecd10ff	-0.4005203
21	0xbce325b0	-0.027727932
22	0xbda12dc2	-0.07870056
23	0x3e2e83fa	0.17042533
24	0x3e284939	0.16434182
25	0x3e2aa11d	0.16663022
26	0xbd9c1a69	-0.07622225
27	0x3df720f7	0.120668344
28	0x3e21fa43	0.15818124
29	0x3d2c0576	0.041997395
30	0xbe2e577e	-0.17025563
31	0xbd0350b6	-0.032059394
32	0x3e54df8a	0.20788398
33	0xbe246d12	-0.16057232
34	0xbdbff2f0	-0.093725085
35	0xbe6434cc	-0.22285765
36	0x3d1f32d0	0.038866818
37	0x3dc5c0ae	0.09655891
38	0xbe33c8d7	-0.17557083
39	0xbe1ae995	-0.15128167
40	0xbe16ba1d	-0.14719434
41	0x3e8e7be5	0.278289
42	0xbce2c3ed	-0.027681315
43	0x3a83d869	0.0010059002
44	0xbd19dfc7	-0.037566926
45	0x3dc6a29d	0.09698985
46	0xbe295507	-0.16536342
47	0x3c41d64d	0.011830878
48	0xbe009b14	-0.12559158
49	0xbbe3a399	-0.0069469926
50	0xbd2f29c4	-0.04276444
51	0xbe1d8920	-0.1538434
52	0xbe4a4a01	-0.19754793
53	0x3e72d5d3	0.2371438
54	0x3e0c4826	0.13699397
55	0x3db2ae70	0.087246776
56	0x3c70fbdd	0.014708486
57	0x3d2b58b6	0.04183265
58	0xbc82f9dc	-0.015988283
59	0xbc83bd00	-0.016081333
60	0x3be73d73	0.007056886
61	0xbde245ef	-0.11048495
62	0x3e1f933c	0.15583509
63	0xbe1c7419	-0.15278663
64	0xbe51583c	-0.20443815
65	0x3d3ef915	0.046624262
66	0xbc8fa7c3	-0.01753605
67	0x3e34c689	0.1765386
68	0x3d667b62	0.05627001
69	0x3e0db031	0.13836743
70	0xbe5ab492	-0.21357945
71	0x3e9fec19	0.31234816
72	0x3c434053	0.011917192
73	0x3c437134	0.011928845
74	0x3d9b5751	0.07585014
75	0xbd2fcc35	-0.042919356
76	0xbd4164ab	-0.047215145
77	0xbe9df0b3	-0.308477
78	0xbe791e1c	-0.24327892
79	0xbe474a6d	-0.19461985
80	0xbe5c8d56	-0.2153829
81	0xbe14d827	-0.1453558
82	0x3ecbd1c6	0.39808482
83	0x3e90049a	0.2812851
84	0xbd4b72e1	-0.049670104
85	0x3e7372a1	0.23774196
86	0xbec70849	-0.3887351
87	0xbdb67e6f	-0.08910834
88	0x3d7e8a87	0.06214383
89	0xbc5448bc	-0.012956794
90	0x3c579fce	0.013160659
91	0xbe0921c5	-0.13391788
92	0x3b19fd51	0.0023496936
93	0x3ec33537	0.38126537
94	0x3c8b361a	0.016993571
95	0x3d9720d0	0.07379305
96	0xbe698de5	-0.22808035
97	0x3e3bc2c1	0.18336011
98	0xbe686f3b	-0.22698681
99	0x3e068a5c	0.13138717
100	0xbe5080bd	-0.2036161
101	0xbdd899da	-0.1057622
102	0xbd365c00	-0.04452133
103	0xbe5c113f	-0.21490954
104	0x3e20171c	0.15633816
105	0xbdbac94c	-0.091204256
106	0xbc8e6cf4	-0.017385937
107	0xbd91a426	-0.07111387
108	0xbd81cc47	-0.06337791
109	0x3e33b811	0.17550685
110	0xbe1a2135	-0.1505173
111	0x3ea01e2c	0.3127302
112	0xbc800832	-0.015628908
113	0x3deaf763	0.114729665
114	0x3ddb7162	0.107149854
115	0x3d82f3ed	0.063941814
116	0x3e5da05e	0.21643206
117	0xbd58c136	-0.052918635
118	0xbbc79f58	-0.0060919933
119	0xbd79f359	-0.06102309
120	0xbec3f152	-0.3827005
121	0xbe22df46	-0.15905485
122	0x3dd44e2f	0.10366475
123	0x3e24c4a3	0.16090636
124	0x3dade9cb	0.08491858
125	0xbd90404d	-0.070435144
126	0xbed34a5a	-0.41267663
127	0x3d89928b	0.06717404
128	0xbe096225	-0.13416345
129	0xbd148e1e	-0.036268346
130	0xbe126bd6	-0.14298949
131	0x3e9c2c6f	0.3050265
132	0xbd55a023	-0.05215467
133	0xbd699704	-0.057028785
134	0xbee6edae	-0.4510321
135	0xbd9b0ee7	-0.07571202
136	0xbe6992b4	-0.22809869
137	0x3c2af0aa	0.010433355
138	0x3ebbcc9d	0.36679545
139	0xbd9add47	-0.075617366
140	0xbdeb3991	-0.11485589
141	0xbcf2aeac	-0.029624306
142	0xbcfea6b6	-0.031085353
143	0x3d5a02e4	0.053225413
144	0x3e208cb1	0.1567867
145	0x3eae74a3	0.34073362
146	0x3e7cb3cb	0.2467796
147	0xbd6e1722	-0.05812753
148	0xbd124f2a	-0.035720028
149	0xbe783989	-0.24240698
150	0xbde99691	-0.114056714
151	0xbd64f82f	-0.05590075
152	0xbe42566d	-0.18978281
153	0x3e3dd658	0.18538797
154	0x3e6322cc	0.22181243
155	0xbdcfa903	-0.10139658
156	0xbdfaf5a0	-0.122538805
157	0x3ed09048	0.40735078
158	0x3ec567e1	0.38555816
159	0x3eaef181	0.34168628
160	0xbe03064d	-0.12795372
161	0x3cbb1fb9	0.022842275
162	0xbc5b5fc2	-0.01338953
163	0xbdf632c8	-0.120214045
164	0x3cc971aa	0.024590332
165	0x3e328f27	0.17437421
166	0xbdf690db	-0.12039348
167	0x3eaab498	0.33340907
168	0xbddb5d50	-0.10711157
169	0xbea34c99	-0.31894377
170	0xbe38d21a	-0.18048897
171	0x3e701871	0.23446824
172	0xbe9be5d3	-0.3044878
173	0xbe8728db	-0.26398358
174	0xbe088876	-0.13333306
175	0xbe09cb41	-0.13456441
176	0xbd559988	-0.052148372
177	0x3cad8b85	0.021184692
178	0x3e45c746	0.19314298
179	0x3bfcb0a2	0.007711486
180	0x3c811e55	0.015761534
181	0x3c541851	0.012945251
182	0xbd8c965d	-0.06864617
183	0x3ca9207a	0.020645369
184	0xbddd170d	-0.10795412
185	0xbd23fc5d	-0.040035594
186	0xbe8b48e5	-0.27204052
187	0xbbced9f7	-0.0063126045
188	0x3e2d8085	0.16943558
189	0xbea672dd	-0.3250951
190	0xbd8cf19a	-0.06882019
191	0xbe638c4c	-0.22221488
192	0xbe848d9f	-0.25889298
193	0x3e85d200	0.2613678
194	0x3c88768e	0.016658094
195	0xbd228f42	-0.039687403

conv1.1.running_var f4 [196]
0	0x3cc4ee64	0.024039455
1	0x3d4b29f4	0.049600556
2	0x3cdfd68a	0.02732398
3	0x3d18ee08	0.03733638
4	0x3caa6592	0.020800386
5	0x3c0aebab	0.008479039
6	0x3ce54c40	0.02799046
7	0x3cb6050c	0.022219203
8	0x3d66a283	0.056307327
9	0x3c119771	0.008886204
10	0x3c63671f	0.013879566
11	0x3d44fe67	0.04809418
12	0x3c05c961	0.008165688
13	0x3cfeff5d	0.031127626
14	0x3cac5749	0.021037715
15	0x3cda44c5	0.02664412
16	0x3dae2328	0.08502799
17	0x3d186f95	0.037215788
18	0x3caa5211	0.020791085
19	0x3c92ffc8	0.017944232
20	0x3d314fc7	0.043288972
21	0x3c64979e	0.013952164
22	0x3cfaa1a2	0.03059465
23	0x3d12eccd	0.035870362
24	0x3c74dffe	0.014945982
25	0x3c9488f6	0.018131714
26	0x3cd506ac	0.026004158
27	0x3ca1609e	0.019699391
28	0x3d66f50d	0.056386042
29	0x3c3e00d9	0.011596882
30	0x3d39b204	0.045335785
31	0x3d11081c	0.035408124
32	0x3c7e34e4	0.01551554
33	0x3cfb5bad	0.030683363
34	0x3d8bead8	0.06831902
35	0x3d4f7023	0.05064405
36	0x3cd36f84	0.02581001
37	0x3ce7fd1f	0.02831894
38	0x3d111330	0.03541869
39	0x3cf6bf7c	0.030120604
40	0x3c2dec23	0.010615381
41	0x3d09a63e	0.033605807
42	0x3c507a75	0.0127245085
43	0x3c46879d	0.012117294
44	0x3cadaa85	0.021199474
45	0x3cd856b6	0.026408534
46	0x3cac5155	0.021034876
47	0x3d529b9a	0.051417924
48	0x3d324de5	0.043531317
49	0x3d216ef0	0.03941244
50	0x3ca4e02f	0.02012643
51	0x3c543875	0.0129529135
52	0x3d1ab7e3	0.037773024
53	0x3d70a799	0.058753584
54	0x3ca00524	0.019533701
55	0x3cc981ce	0.024598029
56	0x3cca1e6f	0.024672715
57	0x3c2616f8	0.010137312
58	0x3cbcb24a	0.023034234
59	0x3d212e2a	0.039350666
60	0x3cffde18	0.031233832
61	0x3c464d82	0.01210344
62	0x3d05fdfd	0.032712925
63	0x3c973a69	0.01846047
64	0x3cd2bde7	0.025725318
65	0x3d4cf2d8	0.05003628
66	0x3cf48013	0.029846227
67	0x3cbccbb3	0.02304635
68	0x3ce1767b	0.027522316
69	0x3d2843aa	0.041080154
70	0x3c7332f6	0.014843693
71	0x3d22d409	0.039752994
72	0x3c9357df	0.017986236
73	0x3cc578a3	0.024105376
74	0x3cbe5928	0.023235872
75	0x3c98b54c	0.018641137
76	0x3c56fa9a	0.0131212715
77	0x3d1375f8	0.036001176
78	0x3cb3954e	0.02192178
79	0x3c5c1859	0.013433539
80	0x3d30ed23	0.0431949
81	0x3cc769b5	0.024342397
82	0x3d5256c5	0.05135228
83	0x3d3ffa85	0.046869773
84	0x3d0c3bfb	0.03423689
85	0x3cf518a6	0.02991898
86	0x3d08bc70	0.033382833
87	0x3ca32a80	0.019917727
88	0x3c7dcd37	0.015490822
89	0x3c51650b	0.012780438
90	0x3d3bd777	0.04585978
91	0x3c9bcb5a	0.019017864
92	0x3ca29287	0.01984526
93	0x3d7548f0	0.05988401
94	0x3c9029a9	0.01759799
95	0x3c9d407d	0.01919579
96	0x3d15e444	0.036594644
97	0x3ccdb3b6	0.025110107
98	0x3d6ba854	0.057533577
99	0x3cb95b00	0.0226264
100	0x3cc14bac	0.023595653
101	0x3d74df2b	0.059783142
102	0x3c7e37da	0.015516246
103	0x3d45fea6	0.048338555
104	0x3d03059c	0.03198777
105	0x3cb30f84	0.021857984
106	0x3c9340fa	0.01797532
107	0x3c53d644	0.012929503
108	0x3d095a51	0.033533398
109	0x3d32e8d2	0.043679066
110	0x3ca67b7d	0.020322556
111	0x3d60effb	0.054916363
112	0x3cc16871	0.023609372
113	0x3d1bfba5	0.038081784
114	0x3c8be9b2	0.017079208
115	0x3d12780c	0.035759017
116	0x3c9feee4	0.019523092
117	0x3c903231	0.017602058
118	0x3d727f04	0.059203163
119	0x3cacb8c8	0.021084204
120	0x3d16c628	0.03681007
121	0x3cd4db29	0.02598341
122	0x3d081785	0.033225555
123	0x3c64f2a2	0.013973864
124	0x3d03d3a2	0.03218425
125	0x3dc5815f	0.09643816
126	0x3cf6bce7	0.030119373
127	0x3c2af4a1	0.010434301
128	0x3ce9a5a9	0.028521376
129	0x3cb61071	0.022224637
130	0x3cd8aa38	0.026448354
131	0x3c7e07b8	0.01550477
132	0x3cc3722b	0.02385815
133	0x3d02936f	0.031878885
134	0x3cad2a32	0.021138284
135	0x3cba057f	0.022707699
136	0x3d4f6a89	0.05063871
137	0x3cb45a35	0.02201567
138	0x3cf74d1a	0.030188132
139	0x3c819ab8	0.015820846
140	0x3c8d24da	0.017229486
141	0x3ca2bde7	0.019865943
142	0x3cb921b4	0.022599079
143	0x3d286be5	0.04111852
144	0x3cc3ef73	0.02391789
145	0x3cafe39e	0.021470841
146	0x3c437a8e	0.011931075
147	0x3d4bce21	0.049757127
148	0x3c707aca	0.014677713
149	0x3cecac44	0.028890736
150	0x3d7fe341	0.062472586
151	0x3cc209e2	0.023686353
152	0x3d3baae1	0.04581726
153	0x3c6c93aa	0.014439503
154	0x3cc663d1	0.024217518
155	0x3d153956	0.036431633
156	0x3ceb9d85	0.028761635
157	0x3c8c50f2	0.017128441
158	0x3cb1caba	0.021703113
159	0x3ce2c57b	0.027682057
160	0x3d62a410	0.055332243
161	0x3c722393	0.014778989
162	0x3c7c29fe	0.015390871
163	0x3cbff1e0	0.023430765
164	0x3d8cdc5b	0.06877967
165	0x3d46e7ec	0.04856102
166	0x3c9b5dc2	0.018965606
167	0x3d18f3af	0.03734177
168	0x3c36c1ee	0.011154635
169	0x3d69744a	0.056995668
170	0x3c5b1a0d	0.01337291
171	0x3d0881b5	0.033326823
172	0x3cf615a1	0.03003961
173	0x3d88953a	0.06669088
174	0x3ca0ad78	0.019613966
175	0x3d30e937	0.04319116
176	0x3d36e02e	0.04464739
177	0x3cde32fb	0.027123919
178	0x3d5b4712	0.053534575
179	0x3c9de1d8	0.01927273
180	0x3c7544f7	0.014970056
181	0x3ca45299	0.020058917
182	0x3d2a5a21	0.04158986
183	0x3d1242b4	0.035708144
184	0x3c837eca	0.016051669
185	0x3d6bc46f	0.05756038
186	0x3ce060db	0.027389934
187	0x3c76c5aa	0.015061775
188	0x3d113724	0.035452977
189	0x3db1126f	0.08646094
190	0x3ce91482	0.028452162
191	0x3cc483fd	0.023988718
192	0x3cc91fff	0.02455139
193	0x3cedfbb0	0.029050678
194	0x3c5c9878	0.013464086
195	0x3cf184a3	0.029482191

conv2.0.weight f4 [64, 196, 6]
0	0x3c836a4b	0.016041895
1	0x3c6b99fc	0.014379974
2	0xbcfd46da	-0.030917574
3	0xbc9bb3b0	-0.01900658
4	0x3bd6ad2c	0.0065514054
5	0xbb957738	-0.004561331
6	0x3caab8d9	0.020840095
7	0x3cdbe646	0.026843201
8	0xbc358aeb	-0.011080484
9	0x3c1224a4	0.008919869
10	0x3bb63a1f	0.005561128
11	0x3ce48348	0.027894631
12	0xbcd05c52	-0.025434647
13	0x3c3847bd	0.0112475725
14	0xbc87a7b6	-0.016559463
15	0xbcb2dce8	-0.021833852
16	0x3cd4bfe1	0.025970401
17	0x3c3656c5	0.011129086
18	0xbcfca501	-0.030840399
19	0x3c522c4c	0.012827944
20	0xbcdc97fb	-0.026927939
21	0x3c83e7e3	0.016101783
22	0xbbd2043a	-0.0064091953
23	0xbc87078d	-0.016483093
24	0x3b7f5034	0.0038957717
25	0xba66b1a0	-0.0008800272
26	0x3b937b5f	0.004500791
27	0xbc529f32	-0.012855338
28	0x3cd38608	0.025820747
29	0xbc01fec9	-0.007934281
30	0xbbdfc629	-0.0068290425
31	0xbd02e856	-0.031959854
32	0xbcd090ed	-0.025459731
33	0xbaefe887	-0.0018303551
34	0x3aab764e	0.0013081522
35	0xbcc9ec93	-0.02464894
36	0x3b9b0f55	0.0047320523
37	0x3c27728d	0.010220182
38	0xbc415e73	-0.011802304
39	0x3b85ab4c	0.004079258
40	0xbc94cb66	-0.018163394
41	0xbd06d0cc	-0.032913968
42	0xbb94dc7c	-0.0045428853
43	0x3ca16184	0.01969982
44	0xba9bfcd7	-0.0011900914
45	0xbcb8b488	-0.022547022
46	0x3c94ad86	0.018149149
47	0xbc196c58	-0.00936421
48	0xbcd5645a	-0.026048828
49	0x3c401f48	0.011726208
50	0xbcaaf8df	-0.020870624
51	0x3caace41	0.020850303
52	0x3bbd0320	0.005768195
53	0x3be4a3bc	0.0069775265
54	0xbcbd9b62	-0.023145381
55	0x3c350018	0.011047386
56	0xbb69c0d0	-0.0035667904
57	0xbc20d6a3	-0.009816798
58	0x3ba5c7f0	0.005059235
59	0xbce3d5f9	-0.027811991
60	0xbcad23d2	-0.021135245
61	0xbca0d8cf	-0.019634632
62	0xbbc1ffc4	-0.005920382
63	0x3c9ba9c3	0.019001847
64	0x3cb0febc	0.021605842
65	0x3c1b357f	0.009473204
66	0xbc61233d	-0.013741312
67	0x394fdc17	0.00019823048
68	0x3c36a2b7	0.011147193
69	0xbc602027	-0.013679541
70	0xbd00e8ce	-0.03147202
71	0xbc3bee89	-0.011470445
72	0xbc27deb4	-0.010245968
73	0x3cb7bb1d	0.02242809
74	0x3c8fa0f3	0.017532801
75	0x3c7f408f	0.015579357
76	0x3ca94d72	0.020666812
77	0xbcc85c11	-0.024457963
78	0xbbf7bc45	-0.0075602853
79	0xbc9303b3	-0.0179461
80	0xbb498559	-0.0030749647
81	0xbc91679e	-0.017749604
82	0x3b266515	0.002538984
83	0xbbd8c4ea	-0.006615271
84	0x3c55b37d	0.013043282
85	0xbcd2875f	-0.025699316
86	0xbc8481a6	-0.016175102
87	0x3c8eef8e	0.017448213
88	0x3c9abe53	0.018889582
89	0x3ba362a4	0.004986124
90	0xbc39dbd2	-0.011343913
91	0xbcc0bb93	-0.023526942
92	0x3cc2d03f	0.02378094
93	0x3a302799	0.00067197677
94	0xbc1ce59a	-0.009576226
95	0xbc2f0116	-0.010681411
96	0xbb55e46e	-0.0032637375
97	0x3cac2f7b	0.021018734
98	0xbc594b16	-0.013262531
99	0x3a9326ff	0.0011226832
100	0x3c8352bd	0.016030664
101	0xbc316511	-0.010827319
102	0x3c55a392	0.0130394865
103	0xbb5af569	-0.0033410436
104	0xbd09260f	-0.03348356
105	0x3b1dbd6c	0.0024069203
106	0x3bb17dd2	0.0054166103
107	0xbb940d7e	-0.00451821
108	0xbc5461c1	-0.0129627595
109	0x3cce0997	0.025151057
110	0x3c97eb96	0.018544953
111	0x3cf909e5	0.030400226
112	0x3d038313	0.032107424
113	0x3c5897c9	0.013219782
114	0xbc3d7449	-0.011563369
115	0x3c8754ca	0.016519923
116	0xbc1a1337	-0.009403995
117	0x3ceca330	0.028886408
118	0x3ceb17b8	0.028697833
119	0x3c9e0b37	0.019292457
120	0x3ca9b69d	0.02071696
121	0xbc5314f0	-0.01288341
122	0xbc8f0871	-0.01746008
123	0xbc88daef	-0.016705958
124	0xbce77fac	-0.02825912
125	0x3d093c0e	0.03350454
126	0xbc9b0527	-0.018923355
127	0xbbdc7d91	-0.006728836
128	0xbc7ef500	-0.015561342
129	0x3b2b9ce8	0.0026186053
130	0xbcc170fa	-0.023613442
131	0x3c2d678a	0.010583768
132	0x3cd2783c	0.025692098
133	0xbc0d1d7a	-0.008612985
134	0x3b42cc41	0.0029723796
135	0x3be490d4	0.0069752727
136	0x3cac86cb	0.021060368
137	0xbce16828	-0.027515486
138	0xbc0ad2ae	-0.0084730815
139	0xbca114c0	-0.019663215
140	0xbcbdf887	-0.023189796
141	0xbcb34835	-0.021885017
142	0x3ba1d058	0.0049381666
143	0x3c666275	0.01406156
144	0x3af24212	0.0018482825
145	0xbb3dbc08	-0.0028951187
146	0xbc2a8ec5	-0.0104100155
147	0xbd064046	-0.03277614
148	0x3d16d00a	0.036819495
149	0x3cddc447	0.027071131
150	0xbccea846	-0.025226723
151	0x3ba1703e	0.0049267104
152	0x3c8590cc	0.016304396
153	0x3c51732f	0.01278381
154	0x3c9a8210	0.018860847
155	0x3c7ef6f4	0.015561808
156	0x3cf183e6	0.02948184
157	0xbbe89d2e	-0.0070988154
158	0x3b6a72b6	0.003577394
159	0x3a9e5fc1	0.001208298
160	0xbcedc0a8	-0.02902253
161	0x3c944dba	0.01810347
162	0xbc7f7906	-0.015592819
163	0x3cf9628b	0.030442497
164	0x3cc8411e	0.024445113
165	0x3ce90731	0.028445812
166	0x3ceb13be	0.028695937
167	0x3cffcb32	0.03122482
168	0xbd20d80b	-0.039268535
169	0xbce41ff9	-0.027847277
170	0xbcc57cde	-0.024107393
171	0x3cce24e8	0.025164083
172	0xbc887dd9	-0.016661571
173	0x3c6c69d7	0.014429531
174	0x3c267ad0	0.010161117
175	0x3d06fef4	0.032957986
176	0xbc7e7398	-0.015530489
177	0x3a09a61d	0.0005250888
178	0xbcfb24dc	-0.030657224
179	0xbcd5eefa	-0.02611493
180	0xbcde6a65	-0.027150342
181	0x3c8e5d8e	0.017378595
182	0xbc065e77	-0.008201233
183	0x3b62244a	0.0034506493
184	0x3cdcda01	0.026959421
185	0x3ca3157d	0.019907707
186	0x3c5c1296	0.013432166
187	0xbc6ac6b3	-0.0143296
188	0x3c709606	0.014684206
189	0x3cba1d10	0.022718936
190	0xbcfdb38c	-0.030969404
191	0xbbd278ab	-0.006423076
192	0xbc9ee0f9	-0.019394385
193	0xbc361b64	-0.011114929
194	0x3b348e1d	0.0027550526
195	0xbce0dc2c	-0.027448736
196	0xbc9c9993	-0.019116199
197	0x3c66bf81	0.014083744
198	0x3cba0c1a	0.022710849
199	0xbc1a6a0f	-0.0094247
200	0x3ca814c0	0.020517707
201	0xbc990cea	-0.018682916
202	0xbc3fee8f	-0.011714592
203	0x3c8e3013	0.017356908
204	0xbb33ccf2	-0.002743539
205	0x3c833e1a	0.016020823
206	0xbc69bd25	-0.014266287
207	0x3c2613bc	0.010136541
208	0xbc2446f1	-0.010026679
209	0xbc16fc43	-0.009215417
210	0x3c66fa3d	0.014097747
211	0x3c1dfa77	0.009642235
212	0x3cac3c5c	0.021024875
213	0xbb5c6990	-0.0033632256
214	0xbc50c069	-0.012741187
215	0x3c6ddeb0	0.014518425
216	0xba412de9	-0.0007369207
217	0xbcdd52f1	-0.027017089
218	0xbcd710dd	-0.026253158
219	0x3c55c3c7	0.013047165
220	0x3c2e31d3	0.010631996
221	0xbc9d03ae	-0.019166794
222	0x3cbbf8a3	0.022945708
223	0x3c6cee72	0.014461147
224	0x3c62885c	0.013826456
225	0x3b2b5ccb	0.0026147838
226	0x3c306ece	0.010768605
227	0xbc4f5706	-0.012655025
228	0xbc98a87a	-0.018635023
229	0x38ef06a3	0.00011397644
230	0x3c50e123	0.012748989
231	0xbc21e776	-0.009881845
232	0x3c857430	0.016290754
233	0x3d04d8e5	0.03243341
234	0x3c5ee3f6	0.013604155
235	0x3cc1e061	0.023666563
236	0x3b2e1234	0.0026561143
237	0x3a127311	0.0005586604
238	0xbc4f844a	-0.0126658175
239	0x3cbc6984	0.022999533
240	0xbc98faa5	-0.018674204
241	0x3c56c559	0.013108575
242	0x3c4de930	0.012567803
243	0x3cde32dd	0.027123863
244	0xbb46fd7d	-0.0030363493
245	0xbc3999ac	-0.011328142
246	0x3cfaad24	0.030600138
247	0xbca77e81	-0.020446064
248	0xbb0133b0	-0.0019714646
249	0xbcac825d	-0.021058256
250	0x3ccf5d6e	0.025313105
251	0x3ce3c5f1	0.027804347
252	0xbc65f481	-0.014035345
253	0xbb8768da	-0.0041323723
254	0xbba72e8a	-0.0051019834
255	0xbd0890f8	-0.033341378

conv2.0.bias f4 [64]
0	0xbc956571	-0.018236848
1	0x3c1f0538	0.009705834
2	0xbc78c72a	-0.015184203
3	0x3be7954a	0.007067357
4	0x3c51d83e	0.012807904
5	0x3c3ee436	0.011651089
6	0x3c910766	0.017703723
7	0x3c393f8f	0.011306657
8	0x3c981c57	0.018568201
9	0x3b214af8	0.0024611335
10	0xbcd5e621	-0.02611071
11	0x3c76d196	0.015064618
12	0x3c7059a2	0.014669808
13	0x3c063744	0.008191887
14	0xb9f0daa7	-0.00045939276
15	0x3cb6cd59	0.022314714
16	0x3cb190c5	0.021675477
17	0xbc97f99e	-0.018551644
18	0xbc91d154	-0.01780001
19	0x3ca74d6c	0.02042266
20	0xbb87d147	-0.004144821
21	0x3cfa0e2a	0.030524332
22	0xbca22758	-0.019794151
23	0x3b73a26f	0.0037175675
24	0x3c238c6b	0.009982209
25	0x3b2dee12	0.0026539606
26	0x3c77c1ac	0.015121859
27	0x3c54c766	0.012986993
28	0xbbd445ba	-0.0064780386
29	0x3d4cf3da	0.050037242
30	0x3cf2694d	0.029591227
31	0xbba71358	-0.0050987415
32	0xbc8dd3d5	-0.017312923
33	0xbca4e156	-0.02012698
34	0xbcea2369	-0.028581338
35	0xbc286d61	-0.010279984
36	0xbcce99ef	-0.025219886
37	0x3c941009	0.018074052
38	0xbcdf2eeb	-0.027244052
39	0xbbeeb3c7	-0.0072846147
40	0x3c8a630e	0.016892936
41	0x39f0c47e	0.00045922765
42	0x3ce4da6f	0.027936189
43	0x3bec1a77	0.0072053033
44	0x3cb5074a	0.022098202
45	0x3ca78b22	0.020452086
46	0xba85adbc	-0.0010198872
47	0xbbd9cc6e	-0.0066466844
48	0x3c22dd9e	0.009940533
49	0x3c14bf5e	0.009078829
50	0xbbe1527d	-0.0068762884
51	0xbc85b351	-0.016320856
52	0xbca3bdef	-0.019988028
53	0xbc42facb	-0.011900614
54	0x3c9861b5	0.018601278
55	0x3cab8aa3	0.02094013
56	0xbc16e293	-0.009209293
57	0xbbc4cadc	-0.006005628
58	0xbca01bcd	-0.019544506
59	0x3c9a9def	0.018874137
60	0xbc408476	-0.011750331
61	0x3ca8e128	0.020615175
62	0xbbd1dff3	-0.0064048707
63	0xbcaa067d	-0.020755047

conv2.1.weight f4 [64]
0	0x3f82566d	1.0182625
1	0x3f832eaa	1.0248616
2	0x3f8264a8	1.0186968
3	0x3f82928b	1.0200971
4	0x3f815d1c	1.010654
5	0x3f837d63	1.027264
6	0x3f8243ef	1.0176982
7	0x3f835303	1.0259708
8	0x3f8336c9	1.0251094
9	0x3f84856d	1.0353218
10	0x3f80b264	1.005444
11	0x3f81f5a6	1.0153091
12	0x3f83459b	1.0255617
13	0x3f81e87b	1.0149072
14	0x3f81e09f	1.0146674
15	0x3f83b67d	1.0290066
16	0x3f82fb02	1.0232852
17	0x3f8256e2	1.0182765
18	0x3f81aba4	1.0130506
19	0x3f82e4e0	1.0226097
20	0x3f82ba40	1.0213089
21	0x3f814f45	1.0102316
22	0x3f8356be	1.0260847
23	0x3f834e57	1.0258282
24	0x3f843a2a	1.033025
25	0x3f814cbc	1.0101542
26	0x3f81a7f2	1.0129378
27	0x3f80d927	1.006627
28	0x3f82b28a	1.0210736
29	0x3f82b922	1.0212748
30	0x3f8305a9	1.0236102
31	0x3f83b7bc	1.0290446
32	0x3f823e89	1.0175334
33	0x3f83bf4f	1.0292758
34	0x3f82fab0	1.0232754
35	0x3f820be5	1.015988
36	0x3f82d325	1.0220686
37	0x3f848de0	1.0355797
38	0x3f8034a2	1.0016062
39	0x3f83c767	1.0295228
40	0x3f81e5c2	1.0148242
41	0x3f82a0a2	1.0205271
42	0x3f828e3b	1.0199655
43	0x3f82b68f	1.0211962
44	0x3f823d2e	1.017492
45	0x3f823c13	1.0174583
46	0x3f81771e	1.0114477
47	0x3f81ce6d	1.0141121
48	0x3f823555	1.0172526
49	0x3f8271b2	1.0190947
50	0x3f82180c	1.0163589
51	0x3f83c830	1.0295467
52	0x3f831de9	1.0243503
53	0x3f819c37	1.0125798
54	0x3f829f4c	1.0204864
55	0x3f81877d	1.0119473
56	0x3f82d833	1.0222229
57	0x3f81adbb	1.0131143
58	0x3f819c75	1.0125872
59	0x3f8171d1	1.0112859
60	0x3f80ef8d	1.0073105
61	0x3f81743f	1.01136
62	0x3f82ba4d	1.0213104
63	0x3f81a1fb	1.0127558

conv2.1.bias f4 [64]
0	0x3b0c8932	0.002144408
1	0x3b3f75bd	0.0029214465
2	0x3bd4582e	0.0064802384
3	0x3bb9f901	0.0056754355
4	0xbaf533fb	-0.0018707508
5	0x3ba84d0e	0.0051361388
6	0x3c196e22	0.009364637
7	0x3b3ebe92	0.0029105288
8	0x3b64b6e6	0.0034899055
9	0x3aebc173	0.001798673
10	0xb89ef0f8	-7.578911e-05
11	0xbbb82afa	-0.0056203576
12	0x3c23dfc7	0.010002083
13	0x3ba1b19a	0.004934502
14	0x3bf96f92	0.007612177
15	0x3c4171cd	0.011806917
16	0x3b338e9f	0.0027398241
17	0x3bedc0c2	0.0072556445
18	0x3bd86bf3	0.0066046654
19	0xba41bbdd	-0.00073903595
20	0x3bf965d7	0.007611017
21	0xb9e71614	-0.00044076203
22	0x3b7b9ceb	0.003839309
23	0x3c240c7b	0.010012741
24	0x3b7f0a5a	0.0038916082
25	0x3b7b2f5e	0.0038327794
26	0xbb20672f	-0.0024475565
27	0x3992795e	0.00027937716
28	0x3c1e847a	0.00967514
29	0x3c544634	0.012956191
30	0x3b45743e	0.00301291
31	0xbb441eac	-0.0029925508
32	0x3bf75306	0.007547739
33	0x3baf3cfb	0.0053478456
34	0x3a5fa5ac	0.0008531462
35	0xbb1d62a7	-0.00240151
36	0x3b75b049	0.0037489107
37	0x3bf38300	0.007431388
38	0xbb4d7905	-0.003135265
39	0x3c7c7747	0.015409297
40	0x3c29673a	0.010339553
41	0xbb6a87d9	-0.0035786538
42	0x3b1d80b6	0.0024033017
43	0x3bb642aa	0.005562146
44	0x3b08d968	0.0020881537
45	0x3bf838ff	0.007575154
46	0x3b319424	0.0027096355
47	0x3b9add4f	0.004726089
48	0xba2a072d	-0.00064860546
49	0x3c4ca55c	0.012490597
50	0x3b8e1f41	0.004337222
51	0x3bb9864f	0.005661763
52	0x3b95a95c	0.0045673084
53	0xbb706ad7	-0.0036684775
54	0x3c3d06ee	0.011537297
55	0x3b8b7344	0.004255684
56	0x3b5b3c15	0.003345256
57	0x3c063aa6	0.008192694
58	0xbb5e3a81	-0.0033909383
59	0x3b970395	0.0046085813
60	0xba366dea	-0.00069591275
61	0x3bce0ccd	0.006288147
62	0x3c4a6593	0.012353319
63	0x3ab355c4	0.0013682176

conv2.1.running_mean f4 [64]
0	0x3dfa1afc	0.12212178
1	0x3e0feaf1	0.14054467
2	0xbcce4808	-0.025180832
3	0x3dbf6aa5	0.09346513
4	0x3f0e4c32	0.55585015
5	0x3eb0353b	0.34415612
6	0xbf160142	-0.5859567
7	0x3e90bfbd	0.28271285
8	0x3eae6df7	0.34068272
9	0x3e2344dd	0.15944238
10	0x3e96eb8b	0.2947658
11	0x3eb3dbc0	0.35128593
12	0xbe4d808a	-0.20068565
13	0x3deaa99d	0.114581324
14	0xbe990e34	-0.2989365
15	0xbf73aebd	-0.95188504
16	0x3d71e5d6	0.05905708
17	0xbeb295f0	-0.34880018
18	0xbf28b1e7	-0.6589646
19	0x3ea59b4b	0.32345042
20	0xbf8517c2	-1.0397875
21	0x3efb9f39	0.49144915
22	0x3e9740ff	0.29541776
23	0xbf3b2f1f	-0.73118776
24	0x3e7375a5	0.23775347
25	0x3eb750d4	0.35803854
26	0x3ee6fda4	0.45115387
27	0x3f72c984	0.9483874
28	0xbf254571	-0.64559084
29	0xbfb81c32	-1.4383605
30	0x3eb46b51	0.35238126
31	0x3f0a23a0	0.5396061
32	0xbefc094c	-0.49225843
33	0x3de4166d	0.1113709
34	0x3e71e389	0.23621954
35	0x3ee26abf	0.44222066
36	0x3cc11bd4	0.02357284
37	0xbed09403	-0.40737924
38	0x3f315256	0.6926626
39	0xbf97cf71	-1.1860181
40	0xbf4ddedf	-0.804182
41	0x3ece32d7	0.40273163
42	0x3eaa622e	0.3327803
43	0xbe73e44e	-0.2381756
44	0xbd24df41	-0.040251974
45	0xbf4ddfd7	-0.8041968
46	0xbd92bf08	-0.071653426
47	0xbf01f543	-0.50764865
48	0x3eb9ccb9	0.36289003
49	0xbf90ce78	-1.1313009
50	0x3eb1a228	0.34694028
51	0xbe2976eb	-0.1654927
52	0x3e978bd2	0.29598862
53	0x3ecf51f5	0.40492216
54	0xbf96c3e8	-1.1778536
55	0xbe53298b	-0.20621316
56	0xbe511ee0	-0.20421934
57	0xbf83df51	-1.0302526
58	0x3ebc9189	0.36829785
59	0x3e7f991e	0.24960753
60	0x3f11fb28	0.5702386
61	0xbebaf996	-0.36518544
62	0xbf91f5a7	-1.1403092
63	0xbde535ce	-0.11191903

conv2.1.running_var f4 [64]
0	0x3e4df01f	0.2011113
1	0x3e125bab	0.14292781
2	0x3e9db03c	0.3079852
3	0x3ee79bee	0.45236152
4	0x3e833e28	0.2563336
5	0x3ec13bd9	0.37740973
6	0x3f19b130	0.6003599
7	0x3e09eaa6	0.13468418
8	0x3edb6f19	0.42858198
9	0x3e9d23d7	0.30691406
10	0x3e965ef7	0.29369327
11	0x3e1a2775	0.15054114
12	0x3ec8fd69	0.39255837
13	0x3ee1c962	0.44098955
14	0x3e4ccfcb	0.20001142
15	0x3f20d22f	0.62820715
16	0x3e483fff	0.19555663
17	0x3e826744	0.2546941
18	0x3ea009ca	0.31257468
19	0x3e20d96b	0.15707938
20	0x3f0fe18f	0.5620355
21	0x3e9993ff	0.29995725
22	0x3e38244e	0.17982599
23	0x3ed62f4f	0.4183297
24	0x3e0aac25	0.1354223
25	0x3e7c71ec	0.24652833
26	0x3e8f1934	0.27948916
27	0x3f11e59b	0.56990975
28	0x3ebe2f89	0.3714564
29	0x3f6ff66a	0.93735373
30	0x3e95f7dd	0.29290667
31	0x3e790073	0.24316578
32	0x3eea696b	0.45783553
33	0x3eb737e7	0.35784838
34	0x3e24bf9d	0.1608872
35	0x3e5633d6	0.20918211
36	0x3e217c5a	0.15770093
37	0x3ee29497	0.4425399
38	0x3ec86859	0.3914211
39	0x3f3bdab7	0.7338061
40	0x3ed34e7a	0.4127081
41	0x3e1c86d9	0.15285815
42	0x3eb10f74	0.34582102
43	0x3e5d06d8	0.21584642
44	0x3ea5f5b5	0.32414022
45	0x3ed369ad	0.41291562
46	0x3e11d24f	0.14240383
47	0x3ee00942	0.43757063
48	0x3e385d69	0.18004383
49	0x3f19afdd	0.6003397
50	0x3e5d70c6	0.21625051
51	0x3e4129f6	0.18863663
52	0x3e3ebc53	0.18626527
53	0x3e734ea5	0.2376047
54	0x3f2c7f9e	0.6738223
55	0x3eca53f1	0.39517167
56	0x3e12c90c	0.14334506
57	0x3ef7f103	0.48426065
58	0x3e76c5a9	0.24098839
59	0x3f196cc2	0.59931576
60	0x3e8b9c69	0.2726777
61	0x3ebb77c0	0.366148
62	0x3f111a29	0.5668054
63	0x3e33c1e3	0.1755443
